tensorflow/lite/micro/models/lenet_model.tflite (tflite, 71376 bytes, 5 tensors)

sequential/dense_1/MatMul i1 [10, 84] scale=0.008800025 zero_point=0
-0.5896017 0.026400074 -0.5280015 0.12320035 0.5544016 -0.3168009 -0.46640134 -0.5984017
-0.46640134 -0.05280015 0.6600019 0.23760068 0.08800025 0.044000126 0.1056003 -0.026400074
-0.44880128 -0.096800275 -0.11440033 -0.08800025 0.044000126 0.44000125 -0.32560092 0.05280015
-0.0704002 -0.12320035 0.43120122 -0.29920086 -0.16720048 0.08800025 0.13200037 -0.05280015
-0.47520137 0.81840235 -0.34320098 -0.5896017 -0.36080104 -0.0352001 -0.36080104 0.44000125
0.0352001 0.1408004 0.4224012 -0.19360055 -0.26400074 -0.026400074 -0.34320098 -0.26400074
-0.026400074 -0.32560092 -0.6336018 0.061600175 0.36080104 0.40480116 0.096800275 -0.29920086
0.4136012 0.29920086 -0.22880065 0.29920086 -0.5632016 -0.7392021 0.07920022 0.2112006
-0.5984017 0.11440033 0.97680277 -0.704002 0.352001 0.47520137 0.27280077 0.18480052
0.18480052 0.50160146 0.044000126 0.4224012 -0.23760068 -0.57200164 -0.37840107 0.2816008
0.67760193 -0.2464007 0.14960043 1.1176032 -0.39600113 -0.1760005 0.5368015 0.4928014
-0.16720048 0.43120122 0.2552007 0.01760005 0.36080104 -0.44880128 0.1056003 0.15840045
-0.19360055 -0.01760005 -0.096800275 0.33440095 -0.1056003 0.5280015 0.07920022 -0.15840045
0.22000062 0.3168009 -0.22000062 0.352001 0.36080104 0.3080009 -0.0704002 0.18480052
-0.15840045 -0.5368015 0.2112006 0.50160146 0.44000125 -0.34320098 0.44000125 0.46640134
-0.23760068 0.2112006 -0.4928014 0.44880128 -0.33440095 -0.2112006 0.18480052 0.27280077
0.061600175 -0.62480175 -0.4136012 -0.37840107 0.096800275 -0.44880128 -0.22000062 0.352001
0.60720176 -0.4576013 0.8536024 -0.2816008 -0.18480052 0.19360055 0.68640196 -0.12320035
-0.46640134 -0.1760005 -0.061600175 0.14960043 0.008800025 -0.8008023 -0.18480052 -0.3168009
-0.34320098 -0.4928014 -0.15840045 -0.3080009 -0.352001 0.48400137 0.8008023 -0.33440095
-0.89760256 -0.44000125 -0.08800025 0.62480175 0.4576013 -0.26400074 0.39600113 -0.13200037
-0.05280015 -0.37840107 0.14960043 0.47520137 -0.2464007 -0.48400137 -0.3080009 -0.57200164
-0.08800025 -0.2112006 -0.0704002 -0.22880065 -0.34320098 -0.05280015 -0.65120184 -0.48400137
-0.061600175 0.5984017 -0.5984017 0.704002 -0.3080009 0.29040083 -0.23760068 -0.33440095
-0.22880065 0.44880128 -0.27280077 -0.2112006 0.27280077 -0.34320098 -0.4224012 0.5984017
-0.1056003 -0.39600113 -0.44880128 -0.008800025 -0.5984017 -0.4136012 0.14960043 1.047203
0.352001 -0.4928014 0.20240058 0.71280205 -0.096800275 -0.05280015 -0.026400074 0.5368015
0.79200226 -0.352001 0.26400074 -0.37840107 0.44000125 -0.58080167 -0.34320098 -0.08800025
-0.67760193 -0.2112006 -0.67760193 0.1056003 0.44880128 0.4136012 -0.6160018 0.0704002
-0.60720176 0.4224012 -0.4576013 0.4576013 -0.39600113 0.57200164 -0.39600113 0.05280015
0.44000125 0.05280015 -0.2552007 -0.2552007 -0.0704002 0.044000126 0.11440033 0.4136012
-0.01760005 0.5984017 0.32560092 0.07920022 0.07920022 -0.2112006 -0.13200037 0.46640134
00000000: bd03 c40e 3fdc cbbc cbfa 4b1b 0a05 0cfd
00000010: cdf5 f3f6 0532 db06 f8f2 31de ed0a 0ffa
00000020: ca5d d9bd d7fc d732 0410 30ea e2fd d9e2
00000030: fddb b807 292e 0bde 2f22 e622 c0ac 0918
00000040: bc0d 6fb0 2836 1f15 1539 0530 e5bf d520
00000050: 4de4 117f d3ec 3d38 ed31 1d02 29cd 0c12
00000060: eafe f526 f43c 09ee 1924 e728 2923 f815
00000070: eec3 1839 32d9 3235 e518 c833 dae8 151f
00000080: 07b9 d1d5 0bcd e728 45cc 61e0 eb16 4ef2
00000090: cbec f911 01a5 ebdc d9c8 eedd d837 5bda
000000a0: 9ace f647 34e2 2df1 fad5 1136 e4c9 ddbf
000000b0: f6e8 f8e6 d9fa b6c9 f944 bc50 dd21 e5da
000000c0: e633 e1e8 1fd9 d044 f4d3 cdff bcd1 1177
000000d0: 28c8 1751 f5fa fd3d 5ad8 1ed5 32be d9f6
000000e0: b3e8 b30c 332f ba08 bb30 cc34 d341 d306
000000f0: 3206 e3e3 f805 0d2f fe44 2509 09e8 f135

sequential/dense/MatMul i1 [84, 120] scale=0.007632389 zero_point=0
0.08395628 0.022897167 -0.061059114 -0.015264778 0.39688423 -0.015264778 -0.030529557 -0.007632389
-0.30529556 -0.09158867 -0.14501539 -0.0686915 -0.6487531 -0.038161945 0.10685345 0.2060745
0.29003078 0.12975061 0.7632389 0.053426724 0.053426724 0.038161945 -0.061059114 0.10685345
0.022897167 0.045794334 0.09922106 -0.053426724 -0.022897167 -0.22897168 0.07632389 0.29766318
-0.007632389 -0.061059114 0.2060745 0.030529557 -0.29003078 -0.053426724 0.0 -0.053426724
0.053426724 0.37398708 -0.07632389 0.29766318 -0.16791256 0.16791256 -0.14501539 -0.16028017
-0.14501539 -0.31292796 0.2823984 0.39688423 -0.2060745 0.07632389 -0.14501539 0.053426724
0.0686915 0.10685345 0.19844212 -0.0686915 -0.25950122 -0.09158867 -0.24423645 -0.12975061
-0.25186884 -0.10685345 0.25950122 -0.12211823 -0.030529557 -0.6258559 0.19844212 0.14501539
-0.16791256 0.49610528 0.0 0.38161945 0.29003078 0.07632389 -0.22133929 0.14501539
-0.38925186 -0.23660406 0.2060745 0.18317734 -0.015264778 0.26713362 0.23660406 0.022897167
0.030529557 -0.0686915 0.19080973 -0.40451664 0.3510899 0.30529556 -0.22897168 -0.22897168
0.16791256 0.0686915 -0.038161945 0.11448584 -0.09158867 -0.015264778 -0.23660406 -0.22133929
-0.2137069 -0.60295874 -0.12975061 0.09922106 -0.32819274 -0.5266349 0.29766318 0.33582512
-0.137383 0.25950122 -0.10685345 0.30529556 -0.18317734 0.16791256 0.22897168 0.0
-0.25950122 0.0686915 0.053426724 0.17554495 0.0 -0.17554495 -0.015264778 0.24423645
0.022897167 -0.412149 -0.137383 0.16028017 0.045794334 -0.12975061 0.10685345 -0.07632389
0.137383 -0.10685345 0.22897168 0.0686915 0.33582512 -0.09922106 0.11448584 -0.30529556
-0.015264778 -0.11448584 -0.07632389 -0.32819274 -0.19844212 -0.17554495 -0.07632389 0.07632389
-0.08395628 0.19844212 -0.22133929 -0.015264778 0.14501539 -0.16791256 0.19844212 0.053426724
-0.30529556 -0.053426724 0.0 0.3587223 0.16791256 0.053426724 -0.14501539 0.30529556
-0.038161945 -0.09158867 -0.25186884 0.23660406 -0.14501539 -0.22897168 0.09158867 0.32056034
-0.07632389 -0.10685345 -0.137383 -0.15264778 -0.16791256 -0.137383 -0.14501539 -0.31292796
0.007632389 -0.15264778 0.015264778 -0.053426724 0.23660406 -0.18317734 0.19080973 -0.14501539
-0.022897167 0.007632389 -0.16791256 -0.015264778 0.32056034 0.045794334 -0.045794334 0.015264778
0.14501539 -0.09922106 0.16791256 0.038161945 -0.022897167 0.32819274 0.09158867 -0.38161945
-0.26713362 -0.022897167 0.11448584 -0.12211823 -0.038161945 -0.10685345 -0.22133929 -0.32056034
0.12211823 0.39688423 -0.19844212 0.053426724 -0.09158867 0.053426724 -0.16028017 0.053426724
0.16791256 -0.18317734 0.31292796 0.09158867 -0.030529557 -0.26713362 -0.38925186 0.061059114
-0.24423645 -0.2137069 -0.09158867 0.3587223 0.25186884 0.11448584 -0.045794334 0.08395628
0.30529556 0.23660406 -0.0686915 -0.32056034 -0.32056034 0.18317734 0.08395628 0.18317734
0.15264778 0.10685345 0.015264778 -0.14501539 0.045794334 0.07632389 0.09922106 -0.045794334
00000000: 0b03 f8fe 34fe fcff d8f4 edf7 abfb 0e1b
00000010: 2611 6407 0705 f80e 0306 0df9 fde2 0a27
00000020: fff8 1b04 daf9 00f9 0731 f627 ea16 edeb
00000030: edd7 2534 e50a ed07 090e 1af7 def4 e0ef
00000040: dff2 22f0 fcae 1a13 ea41 0032 260a e313
00000050: cde1 1b18 fe23 1f03 04f7 19cb 2e28 e2e2
00000060: 1609 fb0f f4fe e1e3 e4b1 ef0d d5bb 272c
00000070: ee22 f228 e816 1e00 de09 0717 00e9 fe20
00000080: 03ca ee15 06ef 0ef6 12f2 1e09 2cf3 0fd8
00000090: fef1 f6d5 e6e9 f60a f51a e3fe 13ea 1a07
000000a0: d8f9 002f 1607 ed28 fbf4 df1f ede2 0c2a
000000b0: f6f2 eeec eaee edd7 01ec 02f9 1fe8 19ed
000000c0: fd01 eafe 2a06 fa02 13f3 1605 fd2b 0cce
000000d0: ddfd 0ff0 fbf2 e3d6 1034 e607 f407 eb07
000000e0: 16e8 290c fcdd cd08 e0e4 f42f 210f fa0b
000000f0: 281f f7d6 d618 0b18 140e 02ed 060a 0dfa

sequential/conv2d_2/Conv2D i1 [120, 5, 5, 16]
-20 -13 -32 -14 4 2 1 28
-15 5 1 -3 -4 -2 0 3
13 18 -19 -19 -16 -4 -9 -3
10 -4 10 6 5 8 -15 -7
46 -28 -26 -7 4 0 -2 -30
-3 3 0 19 12 5 10 -13
18 -70 1 -17 -1 -10 5 6
-14 8 -7 -19 -7 -3 11 1
-57 -64 9 -44 -3 11 3 57
-13 -9 9 22 10 8 -1 -8
11 -17 23 -47 4 -8 -7 -52
-13 -9 7 36 0 5 9 -6
61 36 -3 -22 -10 -2 9 -83
-6 4 3 64 -1 2 8 6
103 -28 0 19 9 -13 2 -88
2 -9 -5 57 11 2 6 -10
65 0 69 -34 -11 7 33 -57
0 -15 -3 63 9 8 -1 -8
16 -127 55 -22 -14 -2 -8 1
4 2 5 48 -15 -7 -9 -13
47 39 42 14 -12 -2 -4 -52
4 -4 -3 43 1 9 -12 -11
11 24 -9 7 10 -8 -3 -2
-11 -2 -15 18 -13 -12 11 3
42 32 31 8 -11 -13 -43 -25
8 -14 -7 1 -11 4 10 0
21 30 16 25 0 -8 24 -13
-4 7 5 -21 -7 7 -9 -7
4 21 29 12 6 0 9 -15
5 11 -10 -34 -15 -12 3 -9
-56 18 -25 29 -12 3 -13 37
-9 10 3 0 -14 -7 7 3
00000000: ecf3 e0f2 0402 011c f105 01fd fcfe 0003
00000010: 0d12 eded f0fc f7fd 0afc 0a06 0508 f1f9
00000020: 2ee4 e6f9 0400 fee2 fd03 0013 0c05 0af3
00000030: 12ba 01ef fff6 0506 f208 f9ed f9fd 0b01
00000040: c7c0 09d4 fd0b 0339 f3f7 0916 0a08 fff8
00000050: 0bef 17d1 04f8 f9cc f3f7 0724 0005 09fa
00000060: 3d24 fdea f6fe 09ad fa04 0340 ff02 0806
00000070: 67e4 0013 09f3 02a8 02f7 fb39 0b02 06f6
00000080: 4100 45de f507 21c7 00f1 fd3f 0908 fff8
00000090: 1081 37ea f2fe f801 0402 0530 f1f9 f7f3
000000a0: 2f27 2a0e f4fe fccc 04fc fd2b 0109 f4f5
000000b0: 0b18 f707 0af8 fdfe f5fe f112 f3f4 0b03
000000c0: 2a20 1f08 f5f3 d5e7 08f2 f901 f504 0a00
000000d0: 151e 1019 00f8 18f3 fc07 05eb f907 f7f9
000000e0: 0415 1d0c 0600 09f1 050b f6de f1f4 03f7
000000f0: c812 e71d f403 f325 f70a 0300 f2f9 0703

sequential/conv2d_1/Conv2D i1 [16, 5, 5, 6]
46 -24 26 28 -18 25 42 -43
-14 66 -31 32 63 -62 -9 37
-21 34 33 -18 -41 15 -30 16
-15 -7 -21 -15 -26 44 62 -54
51 56 -85 14 51 -51 41 78
-81 30 42 -84 26 68 -112 19
31 -65 23 45 -59 33 44 -39
8 16 -29 11 -21 -3 73 -26
-82 67 -66 2 87 -4 -80 80
-26 -22 89 -3 -97 61 7 -33
77 38 -78 48 50 -51 24 42
-72 3 -77 24 -22 -63 -16 125
-97 20 -38 -61 -16 127 -70 5
36 -36 -34 124 -32 -14 35 -9
-70 83 9 -29 18 30 -51 18
22 -16 -88 -5 -16 46 -19 15
-86 -30 -7 65 -47 17 -75 -73
-11 91 -68 42 -19 -70 -6 88
-8 14 7 -15 -11 60 10 8
-4 -5 19 0 -19 25 -22 -38
29 21 -31 23 -24 -29 28 45
-30 17 -45 -14 10 20 17 -12
-26 21 -7 -3 29 8 -17 -8
19 -8 -9 42 -41 -21 45 0
-64 30 -70 -48 17 60 -49 -2
-48 -8 -26 53 4 -18 -19 17
-14 17 51 -12 -3 34 32 -43
11 23 -47 -2 33 -18 -74 52
-71 -84 23 71 -90 54 -72 -79
-7 88 -17 4 -9 -10 -15 37
53 -21 33 30 5 -37 -20 42
2 -36 31 -4 -56 44 -72 -73
00000000: 2ee8 1a1c ee19 2ad5 f242 e120 3fc2 f725
00000010: eb22 21ee d70f e210 f1f9 ebf1 e62c 3eca
00000020: 3338 ab0e 33cd 294e af1e 2aac 1a44 9013
00000030: 1fbf 172d c521 2cd9 0810 e30b ebfd 49e6
00000040: ae43 be02 57fc b050 e6ea 59fd 9f3d 07df
00000050: 4d26 b230 32cd 182a b803 b318 eac1 f07d
00000060: 9f14 dac3 f07f ba05 24dc de7c e0f2 23f7
00000070: ba53 09e3 121e cd12 16f0 a8fb f02e ed0f
00000080: aae2 f941 d111 b5b7 f55b bc2a edba fa58
00000090: f80e 07f1 f53c 0a08 fcfb 1300 ed19 eada
000000a0: 1d15 e117 e8e3 1c2d e211 d3f2 0a14 11f4
000000b0: e615 f9fd 1d08 eff8 13f8 f72a d7eb 2d00
000000c0: c01e bad0 113c cffe d0f8 e635 04ee ed11
000000d0: f211 33f4 fd22 20d5 0b17 d1fe 21ee b634
000000e0: b9ac 1747 a636 b8b1 f958 ef04 f7f6 f125
000000f0: 35eb 211e 05db ec2a 02dc 1ffc c82c b8b7

sequential/conv2d/Conv2D i1 [6, 5, 5, 1]
88 88 109 85 114 110 7 -17
-8 65 32 -66 -81 -81 14 -63
-127 -101 -90 -12 -46 -59 -34 -36
-74 -97 -72 -75 -68 -112 -38 38
75 68 -17 -7 73 76 117 -47
-13 49 115 54 -31 -83 57 127
24 -66 -28 -80 -86 -73 -13 -54
-112 -103 -84 -5 -39 -70 -69 -69
16 -12 -49 -44 -26 90 90 68
87 103 127 53 51 88 78 88
83 25 -9 -35 24 87 -62 -74
-80 -32 2 -127 -65 -62 -47 45
-48 -49 -19 -43 -28 -22 9 48
60 -7 3 5 75 8 -16 -7
-7 127 -40 -26 -2 49 61 -21
-25 6 62 48 -16 -40 -30 -18
-20 -40 -11 1 0 -9 -22 69
39 4 22 45 103 94 127 77
80 -1 -49 -53 -39 23
00000000: 5858 6d55 726e 07ef f841 20be afaf 0ec1
00000010: 819b a6f4 d2c5 dedc b69f b8b5 bc90 da26
00000020: 4b44 eff9 494c 75d1 f331 7336 e1ad 397f
00000030: 18be e4b0 aab7 f3ca 9099 acfb d9ba bbbb
00000040: 10f4 cfd4 e65a 5a44 5767 7f35 3358 4e58
00000050: 5319 f7dd 1857 c2b6 b0e0 0281 bfc2 d12d
00000060: d0cf edd5 e4ea 0930 3cf9 0305 4b08 f0f9
00000070: f97f d8e6 fe31 3deb e706 3e30 f0d8 e2ee
00000080: ecd8 f501 00f7 ea45 2704 162d 675e 7f4d
00000090: 50ff cfcb d917
