tensorflow/lite/micro/models/lstm_model.tflite (tflite, 13952 bytes, 9 tensors)

model/sequential/output/MatMul i1 [10, 560] scale=0.009563831 zero_point=0
00000000: fbee eeea 16f9 13ee 110b 09f8 160c 1012
00000010: f2f9 f013 eff3 e6e9 fef1 06fa 1c18 16ec
00000020: 130a 1c1a f4fa ea07 fd1e 0800 0811 e3f7
00000030: f2f8 0a13 f0f4 19fb fbfe f80a f920 1005
00000040: 05fe e908 e8f4 01f9 f6ea 0206 f903 f2f3
00000050: e40b fff3 12fe fdfb f617 1003 01fe fdf9
00000060: f3f5 f5fb faeb e5e5 00ea 08fa 0a0e 1aff
00000070: 0801 ed04 fb01 0ef5 0fec f0f5 effd fcff
00000080: 04f3 07f6 0512 f901 f606 f6f4 22f0 11fa
00000090: edf0 0309 0605 04f8 12fd f306 0bff e5fd
000000a0: 1dfb 1410 01f9 0e0f 0f00 1cff 19f2 fcfa
000000b0: 0603 eaff 0c0c 070b 0816 f81b 0e15 1ff8
000000c0: 18f6 ed01 0b01 fa05 0c09 2e09 1015 eb1a
000000d0: 0c19 0606 17ef ff0d 05f0 0000 031d 0008
000000e0: 0828 d5f8 f204 eb17 160a fcf7 0308 0917
000000f0: f019 0909 1023 e4e8 db07 dc24 0b14 f5fc
-0.047819152 -0.17214896 -0.17214896 -0.21040428 0.21040428 -0.06694681 0.18171278 -0.17214896
0.16258512 0.10520214 0.08607448 -0.076510645 0.21040428 0.11476597 0.15302129 0.17214896
-0.13389362 -0.06694681 -0.15302129 0.18171278 -0.16258512 -0.1243298 -0.2486596 -0.21996811
-0.019127661 -0.14345746 0.057382986 -0.057382986 0.26778725 0.22953194 0.21040428 -0.19127661
0.18171278 0.095638305 0.26778725 0.2486596 -0.11476597 -0.057382986 -0.21040428 0.06694681
-0.028691493 0.2869149 0.076510645 0.0 0.076510645 0.16258512 -0.27735108 -0.08607448
-0.13389362 -0.076510645 0.095638305 0.18171278 -0.15302129 -0.11476597 0.23909576 -0.047819152
-0.047819152 -0.019127661 -0.076510645 0.095638305 -0.06694681 0.30604258 0.15302129 0.047819152
0.047819152 -0.019127661 -0.21996811 0.076510645 -0.22953194 -0.11476597 0.009563831 -0.06694681
-0.095638305 -0.21040428 0.019127661 0.057382986 -0.06694681 0.028691493 -0.13389362 -0.1243298
-0.26778725 0.10520214 -0.009563831 -0.1243298 0.17214896 -0.019127661 -0.028691493 -0.047819152
-0.095638305 0.21996811 0.15302129 0.028691493 0.009563831 -0.019127661 -0.028691493 -0.06694681
-0.1243298 -0.10520214 -0.10520214 -0.047819152 -0.057382986 -0.20084044 -0.2582234 -0.2582234
0.0 -0.21040428 0.076510645 -0.057382986 0.095638305 0.13389362 0.2486596 -0.009563831
0.076510645 0.009563831 -0.18171278 0.038255323 -0.047819152 0.009563831 0.13389362 -0.10520214
0.14345746 -0.19127661 -0.15302129 -0.10520214 -0.16258512 -0.028691493 -0.038255323 -0.009563831
0.038255323 -0.1243298 0.06694681 -0.095638305 0.047819152 0.17214896 -0.06694681 0.009563831
-0.095638305 0.057382986 -0.095638305 -0.11476597 0.32517025 -0.15302129 0.16258512 -0.057382986
-0.18171278 -0.15302129 0.028691493 0.08607448 0.057382986 0.047819152 0.038255323 -0.076510645
0.17214896 -0.028691493 -0.1243298 0.057382986 0.10520214 -0.009563831 -0.2582234 -0.028691493
0.27735108 -0.047819152 0.19127661 0.15302129 0.009563831 -0.06694681 0.13389362 0.14345746
0.14345746 0.0 0.26778725 -0.009563831 0.23909576 -0.13389362 -0.038255323 -0.057382986
0.057382986 0.028691493 -0.21040428 -0.009563831 0.11476597 0.11476597 0.06694681 0.10520214
0.076510645 0.21040428 -0.076510645 0.2582234 0.13389362 0.20084044 0.29647875 -0.076510645
0.22953194 -0.095638305 -0.18171278 0.009563831 0.10520214 0.009563831 -0.057382986 0.047819152
0.11476597 0.08607448 0.43993622 0.08607448 0.15302129 0.20084044 -0.20084044 0.2486596
0.11476597 0.23909576 0.057382986 0.057382986 0.21996811 -0.16258512 -0.009563831 0.1243298
0.047819152 -0.15302129 0.0 0.0 0.028691493 0.27735108 0.0 0.076510645
0.076510645 0.38255322 -0.41124472 -0.076510645 -0.13389362 0.038255323 -0.20084044 0.21996811
0.21040428 0.095638305 -0.038255323 -0.08607448 0.028691493 0.076510645 0.08607448 0.21996811
-0.15302129 0.23909576 0.08607448 0.08607448 0.15302129 0.33473408 -0.26778725 -0.22953194
-0.35386175 0.06694681 -0.34429792 0.34429792 0.10520214 0.19127661 -0.10520214 -0.038255323

arith.constant i1 [20, 20] scale=0.008569043 zero_point=0
00000000: c406 05d9 07ec 252a 2217 ef20 0129 e506
00000010: 1527 c1ce 02db ee21 0412 fb0c 1a14 cfdf
00000020: 2323 d703 2a04 3ced 0a08 1e0a fddd 293e
00000030: fbdd d206 d4cb d7f9 3931 029c 0504 1fd5
00000040: 0ff3 2616 dd15 cbfe 0ee2 e6e5 0d23 e7b7
00000050: 0601 0729 ed24 cf32 04ed d61b 0de9 e8e3
00000060: f502 34cd bb1e 0102 e4ee 14f8 e400 bc2b
00000070: defe f4c9 147f 05dd bc06 d41a efe5 0f28
00000080: 1e17 d31d 611d dade 03f5 2bef f8f9 f811
00000090: f3e3 f420 09f5 dbe5 14e2 b5f1 36f3 0ecb
000000a0: fd02 ef14 fb15 0ff2 ec13 ea12 0809 06f8
000000b0: 1e3f 16cb cc38 071a 0521 4224 0f1b a702
000000c0: 26f6 f0a0 16e2 fbd1 cfe6 dfda bff4 fd0d
000000d0: 2822 c610 2929 ccfb 12f2 19ff d126 1220
000000e0: e826 eb2b 00d5 d32a 12f3 d2ef 10ef 25e5
000000f0: f6e4 04e9 ef12 3403 ff06 c10b 1812 fef6
-0.5141426 0.05141426 0.042845216 -0.3341927 0.059983302 -0.17138086 0.3170546 0.35989982
0.29134747 0.19708799 -0.14567374 0.27420938 0.008569043 0.35133076 -0.23136416 0.05141426
0.17994991 0.3341927 -0.5398497 -0.42845216 0.017138086 -0.3170546 -0.15424278 0.2827784
0.034276173 0.15424278 -0.042845216 0.10282852 0.22279513 0.17138086 -0.4198831 -0.2827784
0.2999165 0.2999165 -0.35133076 0.02570713 0.35989982 0.034276173 0.5141426 -0.16281182
0.08569043 0.068552345 0.2570713 0.08569043 -0.02570713 -0.2999165 0.35133076 0.5312807
-0.042845216 -0.2999165 -0.39417598 0.05141426 -0.37703788 -0.4541593 -0.35133076 -0.059983302
0.48843545 0.4198831 0.017138086 -0.8569043 0.042845216 0.034276173 0.26564035 -0.36846885
0.12853564 -0.111397564 0.32562363 0.18851894 -0.2999165 0.17994991 -0.4541593 -0.017138086
0.119966604 -0.2570713 -0.22279513 -0.23136416 0.111397564 0.2999165 -0.21422608 -0.62554014
0.05141426 0.008569043 0.059983302 0.35133076 -0.16281182 0.30848557 -0.4198831 0.42845216
0.034276173 -0.16281182 -0.35989982 0.23136416 0.111397564 -0.19708799 -0.20565704 -0.24850225
-0.09425947 0.017138086 0.44559026 -0.4370212 -0.59126395 0.2570713 0.008569043 0.017138086
-0.23993321 -0.15424278 0.17138086 -0.068552345 -0.23993321 0.0 -0.58269495 0.36846885
-0.29134747 -0.017138086 -0.10282852 -0.47129738 0.17138086 1.0882685 0.042845216 -0.2999165
-0.58269495 0.05141426 -0.37703788 0.22279513 -0.14567374 -0.23136416 0.12853564 0.34276173
0.2570713 0.19708799 -0.38560694 0.24850225 0.8311972 0.24850225 -0.32562363 -0.29134747
0.02570713 -0.09425947 0.36846885 -0.14567374 -0.068552345 -0.059983302 -0.068552345 0.14567374
-0.111397564 -0.24850225 -0.10282852 0.27420938 0.07712139 -0.09425947 -0.3170546 -0.23136416
0.17138086 -0.2570713 -0.64267826 -0.12853564 0.46272832 -0.111397564 0.119966604 -0.4541593
-0.02570713 0.017138086 -0.14567374 0.17138086 -0.042845216 0.17994991 0.12853564 -0.119966604
-0.17138086 0.16281182 -0.18851894 0.15424278 0.068552345 0.07712139 0.05141426 -0.068552345
0.2570713 0.5398497 0.18851894 -0.4541593 -0.44559026 0.47986642 0.059983302 0.22279513
0.042845216 0.2827784 0.5655568 0.30848557 0.12853564 0.23136416 -0.7626448 0.017138086
0.32562363 -0.08569043 -0.13710469 -0.82262814 0.18851894 -0.2570713 -0.042845216 -0.40274504
-0.4198831 -0.22279513 -0.2827784 -0.32562363 -0.5569878 -0.10282852 -0.02570713 0.111397564
0.34276173 0.29134747 -0.4970045 0.13710469 0.35133076 0.35133076 -0.44559026 -0.042845216
0.15424278 -0.119966604 0.21422608 -0.008569043 -0.40274504 0.32562363 0.15424278 0.27420938
-0.20565704 0.32562363 -0.17994991 0.36846885 0.0 -0.36846885 -0.38560694 0.35989982
0.15424278 -0.111397564 -0.39417598 -0.14567374 0.13710469 -0.14567374 0.3170546 -0.23136416
-0.08569043 -0.23993321 0.034276173 -0.19708799 -0.14567374 0.15424278 0.44559026 0.02570713
-0.008569043 0.05141426 -0.5398497 0.09425947 0.20565704 0.15424278 -0.017138086 -0.08569043

arith.constant1 i1 [20, 20] scale=0.0049099475 zero_point=0
00000000: cd06 13e5 bbac f90a cbe4 18ef 08cc 24f1
00000010: 0c2e ccfd edee c7ea c8c1 dcf6 25f7 09ff
00000020: 14e6 be04 b0ee 11df f206 144a 35d3 e3d7
00000030: d7b8 f8b0 15f4 c408 df0c 63ad f6cd f4f7
00000040: e5d0 f458 d109 ab0f 2f04 c5cc fafe 08f5
00000050: 2f2f 0f0b cceb b03e cfcb e2f4 dcb9 04eb
00000060: 00db f6d7 c423 fcf0 b8f0 191b 102a ae28
00000070: 322d f900 07f1 ff03 2245 3a2e 2362 38b5
00000080: cd1e 0308 f328 ff11 e855 31bd 2efb 22fd
00000090: f3d6 b8df 0900 e316 d3d9 dbfa e720 a408
000000a0: c03c 11e3 e82c 4adf 0eef 3050 fd3c ec26
000000b0: e927 e300 4929 04fd 09ed 33ee d4c6 0b44
000000c0: f62e 3e2a 1bc0 f017 15c7 021e 2436 1cda
000000d0: ecf7 7be1 f406 070a b7bd 063d ce11 c106
000000e0: d748 9407 f8d4 f5ef 2909 a518 eed9 022d
000000f0: 89d9 afd5 b7da c636 3036 ea3b 731a 81e5
-0.25040734 0.029459685 0.093289 -0.13256858 -0.33878636 -0.4124356 -0.034369633 0.049099475
-0.2602272 -0.13747853 0.11783874 -0.08346911 0.03927958 -0.25531727 0.17675811 -0.07364921
0.05891937 0.22585759 -0.25531727 -0.014729843 -0.093289 -0.088379055 -0.279867 -0.108018845
-0.27495706 -0.3093267 -0.17675811 -0.049099475 0.18166806 -0.044189528 0.044189528 -0.0049099475
0.09819895 -0.12765864 -0.32405654 0.01963979 -0.3927958 -0.088379055 0.08346911 -0.16202827
-0.068739265 0.029459685 0.09819895 0.36333612 0.2602272 -0.22094764 -0.14238848 -0.20130785
-0.20130785 -0.35351622 -0.03927958 -0.3927958 0.1031089 -0.05891937 -0.29459685 0.03927958
-0.16202827 0.05891937 0.48608482 -0.40752566 -0.049099475 -0.25040734 -0.05891937 -0.044189528
-0.13256858 -0.23567748 -0.05891937 0.43207538 -0.23076753 0.044189528 -0.41734552 0.07364921
0.23076753 0.01963979 -0.28968692 -0.25531727 -0.029459685 -0.009819895 0.03927958 -0.054009423
0.23076753 0.23076753 0.07364921 0.054009423 -0.25531727 -0.1031089 -0.3927958 0.30441675
-0.24058743 -0.2602272 -0.14729843 -0.05891937 -0.17675811 -0.3486063 0.01963979 -0.1031089
0.0 -0.18166806 -0.049099475 -0.20130785 -0.29459685 0.17184816 -0.01963979 -0.07855916
-0.35351622 -0.07855916 0.12274869 0.13256858 0.07855916 0.2062178 -0.4026157 0.1963979
0.24549738 0.22094764 -0.034369633 0.0 0.034369633 -0.07364921 -0.0049099475 0.014729843
0.16693822 0.33878636 0.28477696 0.22585759 0.17184816 0.48117486 0.27495706 -0.36824608
-0.25040734 0.14729843 0.014729843 0.03927958 -0.06382932 0.1963979 -0.0049099475 0.08346911
-0.11783874 0.41734552 0.24058743 -0.3289665 0.22585759 -0.024549738 0.16693822 -0.014729843
-0.06382932 -0.2062178 -0.35351622 -0.16202827 0.044189528 0.0 -0.14238848 0.108018845
-0.22094764 -0.19148795 -0.18166806 -0.029459685 -0.12274869 0.15711832 -0.45171517 0.03927958
-0.31423664 0.29459685 0.08346911 -0.14238848 -0.11783874 0.21603769 0.36333612 -0.16202827
0.068739265 -0.08346911 0.23567748 0.3927958 -0.014729843 0.29459685 -0.09819895 0.186578
-0.11292879 0.19148795 -0.14238848 0.0 0.35842615 0.20130785 0.01963979 -0.014729843
0.044189528 -0.093289 0.25040734 -0.088379055 -0.21603769 -0.28477696 0.054009423 0.33387643
-0.049099475 0.22585759 0.30441675 0.2062178 0.13256858 -0.31423664 -0.07855916 0.11292879
0.1031089 -0.279867 0.009819895 0.14729843 0.17675811 0.26513717 0.13747853 -0.186578
-0.09819895 -0.044189528 0.60392356 -0.15220837 -0.05891937 0.029459685 0.034369633 0.049099475
-0.35842615 -0.3289665 0.029459685 0.29950678 -0.24549738 0.08346911 -0.3093267 0.029459685
-0.20130785 0.35351622 -0.53027433 0.034369633 -0.03927958 -0.21603769 -0.054009423 -0.08346911
0.20130785 0.044189528 -0.44680524 0.11783874 -0.088379055 -0.19148795 0.009819895 0.22094764
-0.58428377 -0.19148795 -0.39770573 -0.21112774 -0.35842615 -0.186578 -0.28477696 0.26513717
0.23567748 0.26513717 -0.108018845 0.28968692 0.564644 0.12765864 -0.62356335 -0.13256858

arith.constant2 i1 [20, 20] scale=0.0055614733 zero_point=0
00000000: 0764 44e8 0455 28da 2414 d508 0f33 ed30
00000010: d319 1bda 103b ec1b d7ef 1af1 e43f 1716
00000020: 0648 1fcc 1d5e 0ed1 fc40 2609 e7d8 d823
00000030: d7be 1636 e0d7 019e 055b d6c5 e650 1301
00000040: 0603 03f1 100b 0814 02e3 06f5 deeb 0cd7
00000050: 14fe 24f7 dd13 09fe baa5 cd0f ec0b ecf8
00000060: e243 4d25 0704 dc08 f938 e534 d5f3 dcf7
00000070: dae8 04de 3236 0ce1 e226 4f4f feef daf9
00000080: c00a a709 efed fdba d751 28c2 1115 ffd5
00000090: 3a10 f820 d4f5 ff02 ddfe 24ec 1ad2 ccf2
000000a0: 12fe 25f7 ede1 1dfc 1ad0 ee43 f20a fbe2
000000b0: 284c 1de7 e66d 3525 43f9 38cb 1640 0b27
000000c0: 15f2 2a9c f229 25f5 02d8 fd07 cd12 e621
000000d0: 1e19 dfd5 1322 fad5 0e17 d1bf c2f7 1d3b
000000e0: 0a32 103b f3de d30e d219 00e7 ef06 eba6
000000f0: d721 1ae4 db3c db08 fa19 b243 1508 d8f5
0.03893031 0.55614734 0.37818018 -0.13347536 0.022245893 0.47272524 0.22245893 -0.21133599
0.20021304 0.111229464 -0.23914336 0.044491787 0.0834221 0.28363514 -0.10566799 0.26695073
-0.2502663 0.13903683 0.15015978 -0.21133599 0.08898357 0.32812694 -0.111229464 0.15015978
-0.2280204 -0.094545044 0.1445983 -0.0834221 -0.15572125 0.35037282 0.12791389 0.122352414
0.03336884 0.4004261 0.17240568 -0.2891966 0.16128273 0.5227785 0.07786062 -0.26138926
-0.022245893 0.3559343 0.21133599 0.05005326 -0.13903683 -0.22245893 -0.22245893 0.19465156
-0.2280204 -0.36705723 0.122352414 0.30031955 -0.17796715 -0.2280204 0.0055614733 -0.5450244
0.027807366 0.5060941 -0.23358189 -0.32812694 -0.1445983 0.44491786 0.10566799 0.0055614733
0.03336884 0.01668442 0.01668442 -0.0834221 0.08898357 0.061176207 0.044491787 0.111229464
0.011122947 -0.16128273 0.03336884 -0.061176207 -0.18909009 -0.11679094 0.06673768 -0.2280204
0.111229464 -0.011122947 0.20021304 -0.05005326 -0.19465156 0.10566799 0.05005326 -0.011122947
-0.38930312 -0.5060941 -0.28363514 0.0834221 -0.111229464 0.061176207 -0.111229464 -0.044491787
-0.1668442 0.3726187 0.42823344 0.20577452 0.03893031 0.022245893 -0.20021304 0.044491787
-0.03893031 0.3114425 -0.15015978 0.2891966 -0.23914336 -0.07229915 -0.20021304 -0.05005326
-0.21133599 -0.13347536 0.022245893 -0.18909009 0.27807367 0.30031955 0.06673768 -0.17240568
-0.1668442 0.21133599 0.4393564 0.4393564 -0.011122947 -0.094545044 -0.21133599 -0.03893031
-0.3559343 0.055614732 -0.49497113 0.05005326 -0.094545044 -0.10566799 -0.01668442 -0.38930312
-0.2280204 0.45047933 0.22245893 -0.34481135 0.094545044 0.11679094 -0.0055614733 -0.23914336
0.32256547 0.08898357 -0.044491787 0.17796715 -0.24470483 -0.061176207 -0.0055614733 0.011122947
-0.19465156 -0.011122947 0.20021304 -0.111229464 0.1445983 -0.25582778 -0.2891966 -0.07786062
0.10010652 -0.011122947 0.20577452 -0.05005326 -0.10566799 -0.17240568 0.16128273 -0.022245893
0.1445983 -0.26695073 -0.10010652 0.3726187 -0.07786062 0.055614732 -0.027807366 -0.1668442
0.22245893 0.42267197 0.16128273 -0.13903683 -0.1445983 0.6062006 0.29475808 0.20577452
0.3726187 -0.03893031 0.3114425 -0.29475808 0.122352414 0.3559343 0.061176207 0.21689746
0.11679094 -0.07786062 0.23358189 -0.55614734 -0.07786062 0.2280204 0.20577452 -0.061176207
0.011122947 -0.22245893 -0.01668442 0.03893031 -0.28363514 0.10010652 -0.1445983 0.18352862
0.1668442 0.13903683 -0.18352862 -0.23914336 0.10566799 0.18909009 -0.03336884 -0.23914336
0.07786062 0.12791389 -0.26138926 -0.36149576 -0.34481135 -0.05005326 0.16128273 0.32812694
0.055614732 0.27807367 0.08898357 0.32812694 -0.07229915 -0.18909009 -0.2502663 0.07786062
-0.25582778 0.13903683 0.0 -0.13903683 -0.094545044 0.03336884 -0.11679094 -0.5005326
-0.2280204 0.18352862 0.1445983 -0.15572125 -0.20577452 0.3336884 -0.20577452 0.044491787
-0.03336884 0.13903683 -0.43379492 0.3726187 0.11679094 0.044491787 -0.22245893 -0.061176207

arith.constant3 i1 [20, 20] scale=0.0055173673 zero_point=0
00000000: e7de dbcd f8fc 0a04 493d 1ac7 18fa 2019
00000010: 19dd cb5d d803 ec27 e1ef 0e01 eff5 cdf8
00000020: eff4 cfdb cee4 24f6 160a 3df2 e3fd 4009
00000030: ce1c 0509 bb31 22f8 cc37 2706 e3ff d7ed
00000040: fdea e22d ff0b 9ce5 0ff5 f1d9 d623 fdad
00000050: f410 fc31 0ae5 0e06 1cee b502 e211 dee4
00000060: 16f9 33ee c219 16f4 f8fe ed2b 0eef b310
00000070: 4a19 aafe 1b07 37ea da03 aaf8 deeb 4f35
00000080: 2739 aaec 5836 92ea 18c2 d1ec 0914 4aef
00000090: ead9 fcd6 dbd3 d01e 0ceb f0f3 fe25 d6e5
000000a0: c3f1 e6f7 da12 f206 2b23 e0ca 23c2 f1bf
000000b0: 09f8 08d4 ee05 df14 00d4 ee08 c3f0 edc4
000000c0: 442c ebf3 f1f6 ccfa d54e 0bda c7cd 1a24
000000d0: 1c1e bf21 1805 e601 3224 e1e1 ec45 f5f1
000000e0: e123 f323 11f2 c400 0b08 e1af 0421 1bfa
000000f0: 0706 36ef e313 2adc dc25 f741 e004 05e5
-0.13793418 -0.18759048 -0.20414259 -0.28138572 -0.04413894 -0.02206947 0.055173673 0.02206947
0.4027678 0.3365594 0.14345154 -0.31448993 0.13241681 -0.033104204 0.17655575 0.13793418
0.13793418 -0.19310786 -0.29242048 0.51311517 -0.22069469 0.016552102 -0.110347345 0.21517733
-0.17103839 -0.09379524 0.07724314 0.0055173673 -0.09379524 -0.06069104 -0.28138572 -0.04413894
-0.09379524 -0.06620841 -0.270351 -0.20414259 -0.27586836 -0.15448628 0.19862522 -0.055173673
0.12138208 0.055173673 0.3365594 -0.07724314 -0.16000365 -0.016552102 0.3531115 0.049656305
-0.27586836 0.15448628 0.027586836 0.049656305 -0.38069835 0.270351 0.18759048 -0.04413894
-0.28690308 0.3034552 0.21517733 0.033104204 -0.16000365 -0.0055173673 -0.22621205 -0.10482998
-0.016552102 -0.12138208 -0.16552103 0.24828152 -0.0055173673 0.06069104 -0.5517367 -0.14896892
0.08276051 -0.06069104 -0.08276051 -0.21517733 -0.23172942 0.19310786 -0.016552102 -0.45794147
-0.06620841 0.08827788 -0.02206947 0.270351 0.055173673 -0.14896892 0.07724314 0.033104204
0.15448628 -0.09931261 -0.41380253 0.011034735 -0.16552103 0.09379524 -0.18759048 -0.15448628
0.12138208 -0.03862157 0.28138572 -0.09931261 -0.34207678 0.13793418 0.12138208 -0.06620841
-0.04413894 -0.011034735 -0.10482998 0.2372468 0.07724314 -0.09379524 -0.4248373 0.08827788
0.40828517 0.13793418 -0.4744936 -0.011034735 0.14896892 0.03862157 0.3034552 -0.12138208
-0.20965996 0.016552102 -0.4744936 -0.04413894 -0.18759048 -0.11586471 0.43587202 0.29242048
0.21517733 0.31448993 -0.4744936 -0.110347345 0.48552832 0.29793784 -0.6069104 -0.12138208
0.13241681 -0.34207678 -0.25931627 -0.110347345 0.049656305 0.110347345 0.40828517 -0.09379524
-0.12138208 -0.21517733 -0.02206947 -0.23172942 -0.20414259 -0.24828152 -0.26483363 0.16552103
0.06620841 -0.11586471 -0.08827788 -0.07172577 -0.011034735 0.20414259 -0.23172942 -0.14896892
-0.3365594 -0.08276051 -0.14345154 -0.049656305 -0.20965996 0.09931261 -0.07724314 0.033104204
0.2372468 0.19310786 -0.17655575 -0.29793784 0.19310786 -0.34207678 -0.08276051 -0.35862887
0.049656305 -0.04413894 0.04413894 -0.24276416 -0.09931261 0.027586836 -0.18207312 0.110347345
0.0 -0.24276416 -0.09931261 0.04413894 -0.3365594 -0.08827788 -0.10482998 -0.33104205
0.37518096 0.24276416 -0.11586471 -0.07172577 -0.08276051 -0.055173673 -0.28690308 -0.033104204
-0.2372468 0.43035465 0.06069104 -0.20965996 -0.31448993 -0.28138572 0.14345154 0.19862522
0.15448628 0.16552103 -0.35862887 0.18207312 0.13241681 0.027586836 -0.14345154 0.0055173673
0.27586836 0.19862522 -0.17103839 -0.17103839 -0.110347345 0.38069835 -0.06069104 -0.08276051
-0.17103839 0.19310786 -0.07172577 0.19310786 0.09379524 -0.07724314 -0.33104205 0.0
0.06069104 0.04413894 -0.17103839 -0.44690675 0.02206947 0.18207312 0.14896892 -0.033104204
0.03862157 0.033104204 0.29793784 -0.09379524 -0.16000365 0.10482998 0.23172942 -0.19862522
-0.19862522 0.20414259 -0.049656305 0.35862887 -0.17655575 0.02206947 0.027586836 -0.14896892

arith.constant8 i1 [20, 28] scale=0.003973676 zero_point=0
00000000: 0bc4 f2c9 faff ee01 d413 07fd f4dc d5df
00000010: 250d 0bc8 87cb 2f40 fbd5 d1d1 31de ebfd
00000020: 15f6 d4e1 d7ff ebea 20dd 3e22 ea37 eb49
00000030: 710a e5bd c8b5 34e1 d5fb 1e25 0528 2efc
00000040: 0bde edda d7d1 cdb5 f000 2408 1516 edfe
00000050: b8bd 280a c41a d945 15d3 d81d 5214 13eb
00000060: 0233 fa29 62f9 09ff e21c db17 c4be b741
00000070: 0b13 2911 d7b4 cae6 0817 ee27 0c39 dedd
00000080: 08f2 4719 c9d2 bcc6 a0d2 0b2c e939 fd00
00000090: fae4 e30c eddb 3219 f402 3b0d e2b1 c322
000000a0: f43a 2337 170e 1123 1b09 14e5 d82c ea19
000000b0: d9e6 2be2 f21d 1512 380f 364d 371b 3a44
000000c0: fe54 4c28 22fa 1ee6 2bec 0c13 f7fd fbeb
000000d0: 0231 7f26 01e7 ffe0 f5df fa24 ffbc 24c2
000000e0: 1fd6 0d1d 07de bfd2 e1c8 ddc3 ce2d 182f
000000f0: 2e25 2e25 0d14 1926 f102 e2c2 e712 0229
0.043710433 -0.23842055 -0.055631462 -0.21855217 -0.023842055 -0.003973676 -0.07152617 0.003973676
-0.17484173 0.07549984 0.027815731 -0.011921028 -0.04768411 -0.14305234 -0.17086807 -0.1311313
0.147026 0.05165779 0.043710433 -0.22252585 -0.48081478 -0.21060482 0.18676277 0.25431526
-0.01986838 -0.17086807 -0.18676277 -0.18676277 0.19471012 -0.13510498 -0.083447196 -0.011921028
0.083447196 -0.03973676 -0.17484173 -0.12318395 -0.16292071 -0.003973676 -0.083447196 -0.087420866
0.12715763 -0.13907866 0.2463679 0.13510498 -0.087420866 0.21855217 -0.083447196 0.29007834
0.44902536 0.03973676 -0.10728925 -0.26623628 -0.22252585 -0.2980257 0.20663115 -0.12318395
-0.17086807 -0.01986838 0.11921027 0.147026 0.01986838 0.15894704 0.18278909 -0.015894704
0.043710433 -0.13510498 -0.07549984 -0.15099968 -0.16292071 -0.18676277 -0.20265748 -0.2980257
-0.063578814 0.0 0.14305234 0.031789407 0.083447196 0.087420866 -0.07549984 -0.007947352
-0.28610468 -0.26623628 0.15894704 0.03973676 -0.23842055 0.10331558 -0.15497336 0.27418363
0.083447196 -0.17881541 -0.15894704 0.1152366 0.32584143 0.07947352 0.07549984 -0.083447196
0.007947352 0.20265748 -0.023842055 0.16292071 0.38942024 -0.027815731 0.035763085 -0.003973676
-0.11921027 0.111262925 -0.147026 0.09139454 -0.23842055 -0.2622626 -0.29007834 0.25828892
0.043710433 0.07549984 0.16292071 0.06755249 -0.16292071 -0.30199936 -0.2145785 -0.10331558
0.031789407 0.09139454 -0.07152617 0.15497336 0.04768411 0.22649953 -0.13510498 -0.13907866
0.031789407 -0.055631462 0.282131 0.0993419 -0.21855217 -0.18278909 -0.27020997 -0.2304732
-0.3814729 -0.18278909 0.043710433 0.17484173 -0.09139454 0.22649953 -0.011921028 0.0
-0.023842055 -0.111262925 -0.1152366 0.04768411 -0.07549984 -0.147026 0.1986838 0.0993419
-0.04768411 0.007947352 0.23444688 0.05165779 -0.11921027 -0.3139204 -0.24239422 0.13510498
-0.04768411 0.2304732 0.13907866 0.21855217 0.09139454 0.055631462 0.06755249 0.13907866
0.10728925 0.035763085 0.07947352 -0.10728925 -0.15894704 0.17484173 -0.087420866 0.0993419
-0.15497336 -0.10331558 0.17086807 -0.11921027 -0.055631462 0.1152366 0.083447196 0.07152617
0.22252585 0.059605137 0.2145785 0.30597305 0.21855217 0.10728925 0.2304732 0.27020997
-0.007947352 0.33378878 0.30199936 0.15894704 0.13510498 -0.023842055 0.11921027 -0.10331558
0.17086807 -0.07947352 0.04768411 0.07549984 -0.035763085 -0.011921028 -0.01986838 -0.083447196
0.007947352 0.19471012 0.50465685 0.15099968 0.003973676 -0.0993419 -0.003973676 -0.12715763
-0.043710433 -0.1311313 -0.023842055 0.14305234 -0.003973676 -0.27020997 0.14305234 -0.2463679
0.12318395 -0.16689439 0.05165779 0.1152366 0.027815731 -0.13510498 -0.25828892 -0.18278909
-0.12318395 -0.22252585 -0.13907866 -0.24239422 -0.1986838 0.17881541 0.09536822 0.18676277
0.18278909 0.147026 0.18278909 0.147026 0.05165779 0.07947352 0.0993419 0.15099968
-0.059605137 0.007947352 -0.11921027 -0.2463679 -0.0993419 0.07152617 0.007947352 0.16292071

arith.constant9 i1 [20, 28] scale=0.003992916 zero_point=0
00000000: 11ea 0ade 0ef5 13ee 28f1 fc05 b8ba d4f2
00000010: cec9 083d 3aed fbe8 c50d aebc d43e 4325
00000020: e54e 0a20 4030 15c5 b7c5 13c4 de1c 0132
00000030: 342e d522 db0c 37e9 1de1 e931 05f8 f921
00000040: e1e2 363f d5c2 d3e3 13d9 d5f7 c50c db0b
00000050: 4515 c713 1eee f9fa 6445 00d7 e2e4 f8cd
00000060: 36f4 f8b8 21fa 1d05 4049 d9c6 ca0c db09
00000070: 11da 0e4d 160a fd21 daf7 13f4 00b0 c60f
00000080: c0c5 152c f8eb 0fdc e6d2 f8f6 f6c6 bad4
00000090: fdca f40b befa 15e5 00f9 ef04 f1fd 2942
000000a0: 6c0e 2150 2ffc 26ef f827 f318 25fd c7f0
000000b0: 03f0 e62a dfec 10e5 47fb 1b24 133f f345
000000c0: 3340 f9f2 d7c3 11ef ba07 2f1d 1e4c 342b
000000d0: eef8 d435 7f40 f803 f6fb 17de ef02 453d
000000e0: e2e9 ffd9 dc10 c718 0907 2722 fd20 41f9
000000f0: 1c2f 0f2f 3c26 ea0b 44ed da3a 2817 cafb
0.06787957 -0.087844156 0.03992916 -0.13575915 0.055900827 -0.043922078 0.0758654 -0.07187249
0.15971664 -0.059893742 -0.015971664 0.01996458 -0.28748995 -0.27950412 -0.17568831 -0.055900827
-0.1996458 -0.21961038 0.03194333 0.24356788 0.23158914 -0.0758654 -0.01996458 -0.095829986
-0.23558205 0.05190791 -0.32741913 -0.2715183 -0.17568831 0.2475608 0.26752537 0.14773789
-0.10780873 0.31144744 0.03992916 0.12777331 0.25554663 0.19165997 0.08385124 -0.23558205
-0.29148287 -0.23558205 0.0758654 -0.23957497 -0.13575915 0.111801654 0.003992916 0.1996458
0.20763163 0.18367414 -0.1716954 0.13575915 -0.14773789 0.047914993 0.21961038 -0.09183707
0.11579457 -0.1237804 -0.09183707 0.19565289 0.01996458 -0.03194333 -0.027950414 0.13176623
-0.1237804 -0.119787484 0.21561746 0.2515537 -0.1716954 -0.2475608 -0.17968123 -0.11579457
0.0758654 -0.15572372 -0.1716954 -0.035936244 -0.23558205 0.047914993 -0.14773789 0.043922078
0.2755112 0.08385124 -0.22759622 0.0758654 0.119787484 -0.07187249 -0.027950414 -0.023957497
0.3992916 0.2755112 0.0 -0.16370957 -0.119787484 -0.111801654 -0.03194333 -0.20363872
0.21561746 -0.047914993 -0.03194333 -0.28748995 0.13176623 -0.023957497 0.11579457 0.01996458
0.25554663 0.29148287 -0.15572372 -0.23158914 -0.21561746 0.047914993 -0.14773789 0.035936244
0.06787957 -0.1517308 0.055900827 0.30745453 0.087844156 0.03992916 -0.011978748 0.13176623
-0.1517308 -0.035936244 0.0758654 -0.047914993 0.0 -0.31943327 -0.23158914 0.059893742
-0.25554663 -0.23558205 0.08385124 0.17568831 -0.03194333 -0.08385124 0.059893742 -0.14374498
-0.10381582 -0.18367414 -0.03194333 -0.03992916 -0.03992916 -0.23158914 -0.27950412 -0.17568831
-0.011978748 -0.21561746 -0.047914993 0.043922078 -0.26353246 -0.023957497 0.08385124 -0.10780873
0.0 -0.027950414 -0.06787957 0.015971664 -0.059893742 -0.011978748 0.16370957 0.26353246
0.43123493 0.055900827 0.13176623 0.31943327 0.18766706 -0.015971664 0.1517308 -0.06787957
-0.03194333 0.15572372 -0.05190791 0.095829986 0.14773789 -0.011978748 -0.22759622 -0.06388666
0.011978748 -0.06388666 -0.10381582 0.16770248 -0.13176623 -0.07985832 0.06388666 -0.10780873
0.28349704 -0.01996458 0.10780873 0.14374498 0.0758654 0.2515537 -0.05190791 0.2755112
0.20363872 0.25554663 -0.027950414 -0.055900827 -0.16370957 -0.24356788 0.06787957 -0.06787957
-0.27950412 0.027950414 0.18766706 0.11579457 0.119787484 0.3034616 0.20763163 0.1716954
-0.07187249 -0.03194333 -0.17568831 0.21162455 0.50710034 0.25554663 -0.03194333 0.011978748
-0.03992916 -0.01996458 0.09183707 -0.13575915 -0.06787957 0.007985832 0.2755112 0.24356788
-0.119787484 -0.09183707 -0.003992916 -0.15572372 -0.14374498 0.06388666 -0.22759622 0.095829986
0.035936244 0.027950414 0.15572372 0.13575915 -0.011978748 0.12777331 0.25953954 -0.027950414
0.111801654 0.18766706 0.059893742 0.18766706 0.23957497 0.1517308 -0.087844156 0.043922078
0.2715183 -0.0758654 -0.1517308 0.23158914 0.15971664 0.09183707 -0.21561746 -0.01996458

arith.constant10 i1 [20, 28] scale=0.003306352 zero_point=0
00000000: 2f29 de3b 4821 3152 143b 1150 1753 ebed
00000010: 0d22 2b56 00d3 33f6 f828 0f4f e315 18bf
00000020: 3944 f5e9 4bd4 84b5 e9d2 41ff 2ffd 1521
00000030: ec1a fdf6 16f6 0f1b e2ed 4830 e458 612b
00000040: fcd3 20e3 ca5c 4ad3 1a11 fa3f 08ce ace4
00000050: 29c4 353c 34eb f465 eddf f044 ff28 0b05
00000060: f3f4 c742 1355 1f2b 0118 390e 1712 15bf
00000070: b999 272c 3ed0 d437 151b 5a41 72f6 d6dd
00000080: 28c1 edf9 ce2c 36cb 6401 21d3 d314 b04d
00000090: e90b e4f0 272f f225 085c df2e c2b9 eccc
000000a0: de28 7521 5dfc ea25 10eb dc46 2112 2ff5
000000b0: 19ef 2725 12d1 bcb4 9dd9 1511 311d fe0d
000000c0: 1556 263a 1d44 e7f8 03c1 e5c7 af1e f656
000000d0: 113b 1723 bb0a f73e 3702 1b25 37fc 261e
000000e0: 0835 4421 dc0f 5503 f80e 30f2 b8b3 3735
000000f0: f915 28f8 e544 0104 10e9 acd7 c2fb 0d29
0.15539855 0.13556044 -0.11241597 0.19507477 0.23805735 0.10910962 0.16201125 0.27112088
0.06612704 0.19507477 0.056207985 0.26450816 0.076046094 0.27442724 -0.06943339 -0.06282069
0.04298258 0.11241597 0.14217314 0.28434628 0.0 -0.14878584 0.16862395 -0.03306352
-0.026450817 0.13225408 0.04959528 0.2612018 -0.09588421 0.06943339 0.07935245 -0.21491289
0.18846206 0.22483194 -0.03636987 -0.076046094 0.2479764 -0.14547949 -0.40998766 -0.2479764
-0.076046094 -0.15209219 0.21491289 -0.003306352 0.15539855 -0.009919057 0.06943339 0.10910962
-0.06612704 0.08596516 -0.009919057 -0.03306352 0.07273974 -0.03306352 0.04959528 0.08927151
-0.09919056 -0.06282069 0.23805735 0.1587049 -0.09257786 0.29095897 0.32071614 0.14217314
-0.013225408 -0.14878584 0.105803266 -0.09588421 -0.17854302 0.30418438 0.24467005 -0.14878584
0.08596516 0.056207985 -0.019838113 0.20830017 0.026450817 -0.16531761 -0.27773356 -0.09257786
0.13556044 -0.19838113 0.17523666 0.19838113 0.17193031 -0.06943339 -0.039676227 0.33394155
-0.06282069 -0.10910962 -0.052901633 0.22483194 -0.003306352 0.13225408 0.03636987 0.01653176
-0.04298258 -0.039676227 -0.18846206 0.21821924 0.06282069 0.28103992 0.102496915 0.14217314
0.003306352 0.07935245 0.18846206 0.04628893 0.076046094 0.059514336 0.06943339 -0.21491289
-0.234751 -0.34055427 0.12894773 0.14547949 0.20499383 -0.1587049 -0.14547949 0.18184936
0.06943339 0.08927151 0.2975717 0.21491289 0.37692413 -0.03306352 -0.13886678 -0.11572232
0.13225408 -0.20830017 -0.06282069 -0.023144465 -0.16531761 0.14547949 0.17854302 -0.17523666
0.33063522 0.003306352 0.10910962 -0.14878584 -0.14878584 0.06612704 -0.26450816 0.2545891
-0.076046094 0.03636987 -0.09257786 -0.052901633 0.12894773 0.15539855 -0.04628893 0.122335024
0.026450817 0.30418438 -0.10910962 0.15209219 -0.20499383 -0.234751 -0.06612704 -0.17193031
-0.11241597 0.13225408 0.3868432 0.10910962 0.30749074 -0.013225408 -0.07273974 0.122335024
0.052901633 -0.06943339 -0.11902867 0.23144464 0.10910962 0.059514336 0.15539855 -0.03636987
0.082658805 -0.056207985 0.12894773 0.122335024 0.059514336 -0.15539855 -0.22483194 -0.25128275
-0.32732886 -0.12894773 0.06943339 0.056207985 0.16201125 0.09588421 -0.006612704 0.04298258
0.06943339 0.28434628 0.12564138 0.19176842 0.09588421 0.22483194 -0.082658805 -0.026450817
0.009919057 -0.20830017 -0.08927151 -0.18846206 -0.26781452 0.09919056 -0.03306352 0.28434628
0.056207985 0.19507477 0.076046094 0.11572232 -0.2281383 0.03306352 -0.029757168 0.20499383
0.18184936 0.006612704 0.08927151 0.122335024 0.18184936 -0.013225408 0.12564138 0.09919056
0.026450817 0.17523666 0.22483194 0.10910962 -0.11902867 0.04959528 0.28103992 0.009919057
-0.026450817 0.04628893 0.1587049 -0.04628893 -0.23805735 -0.2545891 0.18184936 0.17523666
-0.023144465 0.06943339 0.13225408 -0.026450817 -0.08927151 0.22483194 0.003306352 0.013225408
0.052901633 -0.076046094 -0.27773356 -0.13556044 -0.20499383 -0.01653176 0.04298258 0.13556044

arith.constant11 i1 [20, 28] scale=0.00348937 zero_point=0
00000000: e124 2125 3712 021b 4a03 f7f5 fff2 dbd1
00000010: fb4f dfee db73 63d1 4841 1bc5 eed0 da3f
00000020: 1953 3c66 622f 33d2 3533 0bf4 14da e8c9
00000030: 05bc dfe4 f54a c7c6 2c16 ce2c c8a2 97a5
00000040: dac3 d603 cdf6 2c26 d42c 2309 2d02 04dd
00000050: 03c6 075c b2e6 f421 14ee f326 e640 23f2
00000060: e8a5 ef02 c1cb fa0e 0edc b514 0749 0de0
00000070: 10df bee0 21d3 98d7 aff9 18d4 f640 052e
00000080: 0bb9 eb40 bd4a 6831 64e7 0a2f f9c5 5960
00000090: eb1c fde0 05fa bcee 0e31 5ad3 3fec 4254
000000a0: 6808 d62f 27e9 29db dc30 4fe3 d3c9 c3c6
000000b0: cfc9 d1c8 bfb8 d8ff 3afb 1109 070f 0703
000000c0: 0a34 f92e d1cf 03d0 e213 e4d8 1def 3053
000000d0: 3f44 e2c7 f803 4c5c 2c47 bdc8 f0cb 00fb
000000e0: 04ff ed06 05fa d9fa 0eef 1fec 9713 fa31
000000f0: 33fc 2129 0d1d bcea e5c6 bd26 14fd 0f15
-0.10817047 0.12561733 0.11514921 0.12910669 0.19191535 0.06280866 0.00697874 0.09421299
0.25821337 0.01046811 -0.03140433 -0.03838307 -0.00348937 -0.04885118 -0.12910669 -0.16400039
-0.01744685 0.27566022 -0.11514921 -0.06280866 -0.12910669 0.40127754 0.34544763 -0.16400039
0.25123465 0.22680905 0.09421299 -0.20587283 -0.06280866 -0.16748977 -0.13259606 0.2198303
0.08723425 0.28961772 0.2093622 0.35591573 0.34195825 0.16400039 0.17795786 -0.16051102
0.18493661 0.17795786 0.03838307 -0.04187244 0.0697874 -0.13259606 -0.08374488 -0.19191535
0.01744685 -0.23727717 -0.11514921 -0.09770236 -0.03838307 0.25821337 -0.19889408 -0.20238346
0.15353228 0.07676614 -0.1744685 0.15353228 -0.19540472 -0.32800078 -0.36638385 -0.31753266
-0.13259606 -0.21285157 -0.14655355 0.01046811 -0.17795786 -0.0348937 0.15353228 0.13259606
-0.15353228 0.15353228 0.12212795 0.03140433 0.15702166 0.00697874 0.01395748 -0.12212795
0.01046811 -0.20238346 0.02442559 0.32102203 -0.27217087 -0.09072362 -0.04187244 0.11514921
0.0697874 -0.06280866 -0.04536181 0.13259606 -0.09072362 0.22331968 0.12212795 -0.04885118
-0.08374488 -0.31753266 -0.05931929 0.00697874 -0.2198303 -0.18493661 -0.02093622 0.04885118
0.04885118 -0.12561733 -0.26170275 0.0697874 0.02442559 0.254724 0.04536181 -0.11165984
0.05582992 -0.11514921 -0.23029841 -0.11165984 0.11514921 -0.15702166 -0.36289448 -0.14306417
-0.28263897 -0.02442559 0.08374488 -0.15353228 -0.0348937 0.22331968 0.01744685 0.16051102
0.03838307 -0.24774528 -0.07327677 0.22331968 -0.23378779 0.25821337 0.36289448 0.17097913
0.348937 -0.08723425 0.0348937 0.16400039 -0.02442559 -0.20587283 0.31055394 0.33497953
-0.07327677 0.09770236 -0.01046811 -0.11165984 0.01744685 -0.02093622 -0.23727717 -0.06280866
0.04885118 0.17097913 0.3140433 -0.15702166 0.2198303 -0.0697874 0.23029841 0.2931071
0.36289448 0.02791496 -0.14655355 0.16400039 0.13608544 -0.08025551 0.14306417 -0.12910669
-0.12561733 0.16748977 0.27566022 -0.10119173 -0.15702166 -0.19191535 -0.21285157 -0.20238346
-0.17097913 -0.19191535 -0.16400039 -0.19540472 -0.22680905 -0.25123465 -0.1395748 -0.00348937
0.20238346 -0.01744685 0.05931929 0.03140433 0.02442559 0.05234055 0.02442559 0.01046811
0.0348937 0.18144724 -0.02442559 0.16051102 -0.16400039 -0.17097913 0.01046811 -0.16748977
-0.1046811 0.06629803 -0.09770236 -0.1395748 0.10119173 -0.05931929 0.16748977 0.28961772
0.2198303 0.23727717 -0.1046811 -0.19889408 -0.02791496 0.01046811 0.26519212 0.32102203
0.15353228 0.24774528 -0.23378779 -0.19540472 -0.05582992 -0.18493661 0.0 -0.01744685
0.01395748 -0.00348937 -0.06629803 0.02093622 0.01744685 -0.02093622 -0.13608544 -0.02093622
0.04885118 -0.05931929 0.10817047 -0.0697874 -0.36638385 0.06629803 -0.02093622 0.17097913
0.17795786 -0.01395748 0.11514921 0.14306417 0.04536181 0.10119173 -0.23727717 -0.07676614
-0.09421299 -0.20238346 -0.23378779 0.13259606 0.0697874 -0.01046811 0.05234055 0.07327677
